pytorch/meinNetz.pt (torch, 3301 bytes, 4 tensors)

weight f4 [10, 10]
0	0xbe0ebdb0	-0.13939548
1	0x3cedca90	0.029027253
2	0x3e028412	0.12745693
3	0x3cbd6e80	0.02312398
4	0xbe4272f7	-0.18989168
5	0xbe63e10c	-0.22253817
6	0x3e9ab203	0.30213937
7	0x3d613a20	0.054987073
8	0x3e511842	0.2041941
9	0xbd8be568	-0.06830865
10	0xbe324df7	-0.17412554
11	0xbe424db0	-0.18974948
12	0x3e300128	0.17187941
13	0xbd8ce4dc	-0.06879589
14	0xbdc6c06a	-0.09704669
15	0x3e066c0e	0.13127157
16	0xbe0b8ebb	-0.13628666
17	0x3e21718e	0.15765974
18	0xbd80663c	-0.062695
19	0x3e532376	0.20618996
20	0xbd0c4528	-0.03424564
21	0xbe120c6b	-0.1426255
22	0xbda7e632	-0.08198203
23	0xbd84cf5c	-0.06484863
24	0xbe9b19c0	-0.30293083
25	0xbe97bd2e	-0.2963652
26	0xbe390c5f	-0.18071125
27	0xbe073ee9	-0.13207592
28	0xbe906e2a	-0.28209049
29	0xbd7ddf68	-0.061980635
30	0x3e42da69	0.1902863
31	0xbc9f1ce0	-0.019422948
32	0x3e34557a	0.17610732
33	0xbdd2c2be	-0.102910504
34	0x3eecbec0	0.4623928
35	0xbd807974	-0.06273165
36	0xb9b69000	-0.00034821033
37	0xbe0e6d72	-0.13908938
38	0x3ea6adaa	0.3255437
39	0x3ede9d62	0.4347945
40	0xbe981baf	-0.2970862
41	0xbe303249	-0.17206682
42	0xbe3e5453	-0.18586855
43	0xbc8fce80	-0.017554522
44	0x3d8446cc	0.06458816
45	0xbe881f94	-0.26586592
46	0x3e8629c3	0.26203737
47	0xbe2c5349	-0.16828646
48	0xbe1b2c97	-0.15153728
49	0x3dbce7e0	0.09223914
50	0xbdfde63a	-0.12397428
51	0x3dcd90c0	0.100373745
52	0xbca906a0	-0.020633042
53	0x3e8d3ac1	0.27583888
54	0x3e11f9c0	0.14255428
55	0xbe760ffd	-0.24029537
56	0x3e1e5f6e	0.15466091
57	0xbe0678c3	-0.13132004
58	0x3e9a8079	0.30176142
59	0xbe02d0ef	-0.12775014
60	0xbe8f0d08	-0.2793963
61	0x3d2464d0	0.040135205
62	0x3c8b25e0	0.016985834
63	0x3e615202	0.2200394
64	0xbe8bc46c	-0.27298295
65	0x3e29ea08	0.16593182
66	0x3c672100	0.014106989
67	0xbd5e2ee0	-0.054243922
68	0x3c63bfc0	0.013900697
69	0x3e9eeba1	0.31039146
70	0x3d8a803c	0.0676274
71	0xbe7d36e8	-0.24727976
72	0x3e5347d2	0.20632866
73	0x3e4d6646	0.20058545
74	0xbd9617e8	-0.073287785
75	0x3e946e9f	0.28990647
76	0x3e6c84b2	0.23097494
77	0xbd098688	-0.033575565
78	0xbdcce5b6	-0.100047514
79	0x3e05fc5c	0.13084549
80	0xbe8f0e3e	-0.27940553
81	0xbe030070	-0.12793136
82	0xbe5b725e	-0.21430346
83	0x3e0c6f1a	0.13714257
84	0xbe9be26b	-0.3044618
85	0x3e95ed7b	0.29282746
86	0x3e8d69bf	0.2761974
87	0x3e3c7bc2	0.18406585
88	0xbe816bc8	-0.25277543
89	0xbe6ca49a	-0.23109666
90	0xbc3b9e60	-0.011451334
91	0xbda99642	-0.082806125
92	0xbdcb4212	-0.09924711
93	0xbe9339c2	-0.28755003
94	0xbdb87d40	-0.090082645
95	0x3e9dece7	0.30844805
96	0xbdbf7d78	-0.09350103
97	0xbe2facf9	-0.17155828
98	0xbdeb2b8a	-0.11482914
99	0x3d8b20b0	0.06793344

bias f4 [10]
0	0x3dfc8468	0.12329942
1	0x3cdc3200	0.02687931
2	0xbe87132d	-0.26381817
3	0x3e8c148f	0.27359435
4	0xbdb68ff4	-0.08914176
5	0xbe8c068e	-0.2734875
6	0xbe6fb7a5	-0.23409899
7	0xbe9b8c57	-0.30380508
8	0x3e1a0f56	0.15044913
9	0xbcc9cfa0	-0.024635136

weight f4 [10, 10]
0	0x3dbf3164	0.093355924
1	0x3e447d3a	0.19188395
2	0xbe57c4d4	-0.21071178
3	0xbdb966cd	-0.09052811
4	0x3e9a833d	0.30178252
5	0x3e9910cf	0.29895636
6	0x3e7dc0b6	0.24780545
7	0x3d95fd8c	0.07323751
8	0xbe91bacc	-0.28462827
9	0x3e248ce4	0.1606937
10	0x3e4ea336	0.20179448
11	0x3d4ca070	0.049957693
12	0x3e638206	0.22217569
13	0x3ed8b573	0.42325935
14	0x3e555686	0.20833787
15	0x3e5e6ade	0.21720454
16	0x3e9a7ef7	0.3017499
17	0xbe70b846	-0.23507795
18	0x3e0173b4	0.12641793
19	0xbe61b299	-0.22040786
20	0xbe8b8a3a	-0.27253896
21	0x3c9e58f0	0.019329518
22	0xbea1cd64	-0.31602013
23	0x3ea9f6af	0.33196017
24	0xbd27fc48	-0.04101208
25	0xba9a0700	-0.0011751354
26	0xbe1e1a30	-0.15439677
27	0xbe3ffe79	-0.18749417
28	0xbe79373d	-0.24337478
29	0xbe3e2ab3	-0.18570976
30	0xbd89529c	-0.067052096
31	0x3e9c4909	0.3052447
32	0xbd4eb930	-0.050469577
33	0x3eda2ad2	0.42610794
34	0x3e1aeca4	0.15129334
35	0xbe5280e6	-0.20556983
36	0xbe707e8d	-0.23485775
37	0xbdef18f8	-0.11674684
38	0xbd5844b0	-0.05279988
39	0x3d85f6f4	0.06541243
40	0xbe0940e6	-0.13403663
41	0xbde35480	-0.111001015
42	0xbd07d0f8	-0.033158273
43	0xbe08352c	-0.13301533
44	0x3ea0d041	0.31408885
45	0xbda0401c	-0.07824728
46	0x3d2a3f18	0.041564077
47	0x3d9e1e10	0.07720578
48	0xbe85318f	-0.26014373
49	0x3ced7100	0.028984547
50	0x3e264ba2	0.16239789
51	0x3d84b148	0.06479126
52	0x3e1a2bc4	0.15055758
53	0x3ea460b2	0.32105023
54	0xbe84f69d	-0.259694
55	0xbe9f1b81	-0.3107567
56	0x3cacfd80	0.021116972
57	0x3e4c3206	0.19940957
58	0xbe0cf8f1	-0.13766839
59	0x3d193710	0.037406027
60	0x3d11cbe0	0.03559482
61	0xbd60fb08	-0.054926902
62	0xbe1b73cd	-0.15180893
63	0x3eb99d44	0.36252797
64	0x3e6a0ada	0.22855702
65	0xbdfa8c5c	-0.12233803
66	0x3e83260b	0.25614962
67	0xbe6745e9	-0.22585262
68	0xbd57eac8	-0.05271414
69	0x3d19a8b8	0.03751442
70	0xbc8da940	-0.017292619
71	0x3d489a18	0.04897508
72	0xbdf53350	-0.11972678
73	0x3e4e3ccb	0.20140378
74	0x3e5f71ee	0.21820804
75	0x3de8524c	0.11343822
76	0xbe847452	-0.25869995
77	0xbe1f52a7	-0.15558873
78	0x3dd7e498	0.10541648
79	0x3e3f525e	0.18683764
80	0xbcb45c00	-0.022016525
81	0xbe8c9c6c	-0.2746309
82	0x3cbcf470	0.023065776
83	0x3e013187	0.1261655
84	0x3d582180	0.052766323
85	0xbd7b4da0	-0.061353326
86	0x3e988f93	0.29797038
87	0x3cf7ef70	0.03026554
88	0x3da9a3d0	0.08283198
89	0xbdcb017c	-0.099123925
90	0x3e977379	0.29580286
91	0xbdd359ae	-0.103198394
92	0xbdf4cfea	-0.11953719
93	0x3dc30167	0.09521752
94	0xbbe25f40	-0.0069083273
95	0xbcd07ff0	-0.02545163
96	0x3e04a30e	0.12952825
97	0x3cc257c0	0.023723483
98	0x3c0c3260	0.008556932
99	0x3e6a71e6	0.22895011

bias f4 [10]
0	0x3e1c59a1	0.15268566
1	0x3e927f09	0.28612545
2	0x3ee15653	0.44011173
3	0x3e900969	0.2813218
4	0x3e65bab2	0.224345
5	0x3eeac229	0.45851257
6	0x3ec6f0e0	0.38855648
7	0x3f290a11	0.66030985
8	0xbe59e625	-0.212792
9	0xbe2472fb	-0.16059487
